model_weights.pt (torch, 454788 bytes, 5 tensors)

conv1.weight f4 [64, 1, 3, 3, 3]
-0.0023242182 -0.074388914 0.16136484 -0.16218154 0.06158229 0.085449964 -0.106818184 -0.19097929
-0.00311984 -0.10365975 -0.09400865 -0.014386306 -0.21029042 -0.05892448 -0.08401932 0.12234581
-0.12657551 -0.016771233 -0.116202325 -0.18284234 -0.04164141 0.17654203 -0.083156615 0.0011217672
-0.03151768 0.11983168 -0.106585 0.1835507 0.035569202 0.06865925 0.096017286 -0.109978735
-0.07045496 -0.16903754 -0.18634552 -0.13908255 0.07125148 -0.009081865 0.11750856 -0.029064424
0.11975257 0.05266847 -0.022703761 0.18113552 0.12210358 -0.03388064 0.10347203 -0.03788252
0.19228825 0.19499627 -0.09862871 -0.018403238 -0.02560113 -0.14439622 0.081167206 -0.094385915
0.013161461 -0.06034635 -0.09997716 -0.0076085296 0.14811414 -0.039358832 -0.18979523 -0.10918586
0.17106791 -0.13573381 -0.15237454 0.0934779 -0.06629744 0.09881506 0.108858995 0.056536697
-0.12078899 0.117172234 -0.08912999 -0.13546142 0.102681026 -0.114627495 -0.068737365 -0.12847173
0.098902345 -0.08082513 -0.070034645 -0.17263776 -0.119847156 -0.081971504 0.023391277 0.049317375
0.078227215 -0.1605782 0.116362214 0.15739283 -0.007142643 -0.20422284 -0.07276273 -0.066293515
-0.18257353 -0.024294414 0.14805844 0.105089955 0.16295922 0.013435242 -0.044847872 -0.13656999
-0.14114955 0.14172088 -0.096237294 -0.18028231 -0.06692765 -0.1395643 0.14386913 -0.046102427
0.17217514 0.05623061 -0.08434151 0.17800836 0.011664368 -0.202487 -0.042420004 0.045974698
0.14290246 0.07312344 -0.026074827 0.16478203 0.016016258 -0.06752577 -0.1954491 0.10239873
-0.1885573 0.04980865 0.117814735 -0.19228835 -0.18389307 0.1410742 -0.06272338 0.1575871
-0.049833577 0.08896956 -0.028834559 0.11956676 -0.047840748 -0.11220427 -0.006870756 -0.040974937
-0.05163818 -0.05872818 -0.18776412 -0.08461427 -0.17066835 -0.10568762 -0.07715596 -0.19191661
-0.17662749 0.17756023 0.05907231 0.15634239 -0.20712332 0.064844914 0.009591049 0.076339774
0.026681291 -0.1031966 0.11130908 -0.022710964 0.06631874 -0.11201699 -0.14675486 -0.0020783534
0.05764356 -0.03451334 -0.094280064 0.092974894 -0.15124811 -0.0032463446 0.20856269 0.24232222
-0.15638173 -0.087503456 -0.07520952 -0.18590224 0.097807474 0.002842802 0.25880527 -0.057868123
-0.1655576 0.12422557 -0.017560069 0.09601047 -0.17596349 0.056038935 -0.0665803 -0.05433337
-0.08139613 0.052480415 0.01600889 0.12286624 -0.089307584 0.179506 0.022351641 -0.11599711
0.07681317 -0.06406768 -0.18423699 -0.014119412 -0.17667672 0.14822058 -0.10400659 0.07218333
0.12324263 -0.086174294 -0.10438824 -0.15685996 0.08984422 0.18391174 0.16088098 0.08273668
0.13296565 0.040561784 -0.07940708 -0.12853849 -0.084719405 0.1645447 -0.16876322 0.15617216
-0.12716389 0.15638655 -0.18244988 0.024751943 -0.055077326 -0.049763758 -0.15770684 -0.042357765
-0.05378098 0.11242888 0.14768727 -0.04233699 -0.01921779 -0.09472747 0.19346234 0.118738905
0.0477364 0.20263836 0.028368838 -0.016774744 0.031539463 0.03177626 -0.09508269 0.17679553
-0.002656015 0.00014789912 -0.12337493 -0.08220163 0.13755362 -0.047913373 0.029454075 -0.00288731
00000000: e951 18bb 3759 98bd d33c 253e eb12 26be
00000010: b63d 7c3d 6400 af3d 7ec3 dabd 1390 43be
00000020: 3b76 4cbb 904b d4bd 9b87 c0bd 8ab4 6bbc
00000030: 5f56 57be cc5a 71bd 5212 acbd 7190 fa3d
00000040: 039d 01be d363 89bc 7cfb edbd 063b 3bbe
00000050: 2f90 2abd 6fc7 343e 044e aabd 4308 933a
00000060: af18 01bd 506a f53d 3d49 dabd b7f4 3b3e
00000070: 03b1 113d 399d 8c3d b6a4 c43d 883c e1bd
00000080: b14a 90bd 2d18 2dbe 5cd1 3ebe a86b 0ebe
00000090: 4cec 913d 1acc 14bc 54a8 f03d 8418 eebc
000000a0: d640 f53d e5ba 573d 3dfd b9bc 977b 393e
000000b0: 7111 fa3d 6dc6 0abd 25e9 d33d b42a 1bbd
000000c0: 36e7 443e 1aad 473e d9fd c9bd 63c2 96bc
000000d0: 76b9 d1bc 9adc 13be fe3a a63d 674d c1bd
000000e0: 2ba3 573c bc2d 77bd d3c0 ccbd f950 f9bb
000000f0: 3cab 173e ba36 21bd ae59 42be d69c dfbd
00000100: 6d2c 2f3e cefd 0abe 1208 1cbe 5771 bf3d
00000110: f4c6 87bd 8d5f ca3d 77f1 de3d 0693 673d
00000120: 3860 f7bd fff7 ef3d c989 b6bd 66b6 0abe
00000130: 6e4a d23d d2c1 eabd 2dc6 8cbd 188e 03be
00000140: 508d ca3d a587 a5bd 536e 8fbd f4c7 30be
00000150: 6d72 f5bd ade0 a7bd 109f bf3c 0401 4a3d
00000160: 9735 a03d 9d6e 24be 504f ee3d 962b 213e
00000170: d50c eabb cb1f 51be a004 95bd e5c4 87bd
00000180: 8ef4 3abe 1405 c7bc a29c 173e 6739 d73d
00000190: c8de 263e 7d1f 5c3c 67b2 37bd 01d9 0bbe
000001a0: 8289 10be 471f 113e 0f18 c5bd ed9b 38be
000001b0: 5d11 89bd f2e9 0ebe 6e52 133e e6d5 3cbd
000001c0: ae4e 303e 1152 663d 3ebb acbd d347 363e
000001d0: e81b 3f3c c158 4fbe 99c0 2dbd f74f 3c3d
000001e0: 0655 123e bec1 953d e09a d5bc 9fbc 283e
000001f0: 8734 833c f34a 8abd cf23 48be 6db6 d13d
00000200: 2a15 41be 2804 4c3d da48 f13d 3de7 44be
00000210: 774e 3cbe c175 103e 1e75 80bd 835e 213e
00000220: 4b1e 4cbd ac35 b63d 7436 ecbc 6bdf f43d
00000230: a9f4 43bd 5acb e5bd 1424 e1bb 56d5 27bd
00000240: 8e82 53bd f68c 70bd 3d45 40be 3f4a adbd
00000250: afc3 2ebe c072 d8bd f203 9ebd ca85 44be
00000260: d6dd 34be 59d2 353e cef5 713d 3818 203e
00000270: 2318 54be 69cd 843d c623 1d3c 0758 9c3d
00000280: b992 da3c bd58 d3bd 04f6 e33d 580c babc
00000290: 1fd2 873d 2a69 e5bd e846 16be fc34 08bb
000002a0: a71b 6c3d dc5d 0dbd e815 c1bd 9f69 be3d
000002b0: c9e0 1abe a0c0 54bb 7591 553e 5123 783e
000002c0: 8822 20be 0335 b3bd 7307 9abd 285d 3ebe
000002d0: 494f c83d 4e4e 3a3b 2082 843e 2007 6dbd
000002e0: ee87 29be fa69 fe3d 22da 8fbc 23a1 c43d
000002f0: c62f 34be 1589 653d 415b 88bd ab8c 5ebd
00000300: 04b3 a6bd b4f5 563d 1325 833c 4ca1 fb3d
00000310: e5e6 b6bd 6cd0 373e ca1a b73c e58f edbd
00000320: 3950 9d3d ea35 83bd 9fa8 3cbe 1b55 67bc
00000330: beea 34be 23c7 173e 6801 d5bd dbd4 933d
00000340: a266 fc3d 267c b0bd 80c9 d5bd e69f 20be
00000350: 3f00 b83d 5c53 3c3e fcbd 243e d971 a93d
00000360: 2628 083e 1d24 263d 2ea0 a2bd 989f 03be
00000370: 5e81 adbd 687e 283e 44d0 2cbe 98eb 1f3e
00000380: 4037 02be cc23 203e 24d4 3abe 96c4 ca3c
00000390: c398 61bd 15d5 4bbd e77d 21be 567f 2dbd
000003a0: 7249 5cbd 1d41 e63d 553b 173e 8d69 2dbd
000003b0: a06e 9dbc 7a00 c2bd fe1a 463e 622d f33d
000003c0: 3e87 433d 6e80 4f3e c465 e83c 306b 89bc
000003d0: 862f 013d d327 023d b7ba c2bd e309 353e
000003e0: 8a10 2ebb 5e15 1b39 ffab fcbd 5459 a8bd
000003f0: dbda 0c3e d040 44bd ac49 f13c 0639 3dbb

conv1.bias f4 [64]
0.0076892865 -0.03799722 0.18715836 0.06969456 0.08958638 0.110874005 -0.09566738 0.035804484
-0.068557486 0.0484116 0.03965667 0.17502218 -0.11792205 -0.038609076 -0.11489108 -0.13548313
-0.06341662 -0.02754792 0.10491133 -0.12716942 -0.04469307 0.0794036 0.121946596 0.1144007
0.16196604 -0.12278742 -0.1243967 -0.10652465 0.16025922 0.057783782 0.0054410524 0.13941044
-0.14184172 -0.1594205 0.14453208 0.06522991 0.15717909 0.11319663 0.015465211 -0.12653355
-0.183284 0.14385776 -0.11719278 0.16296387 -0.14151886 -0.150135 -0.15156472 -0.15032324
-0.07626003 -0.13278079 0.16601835 0.15968794 -0.12951784 -0.08416867 0.07134532 -0.09857554
-0.06750265 0.18546048 0.08998115 0.001781447 -0.14832509 -0.015913457 -0.10101332 -0.06379805
00000000: 69f6 fb3b f9a2 1bbd 71a6 3f3e 05bc 8e3d
00000010: 1079 b73d e911 e33d 42ed c3bd b9a7 123d
00000020: de67 8cbd 3e4b 463d 086f 223d 0439 333e
00000030: 1e81 f1bd 8d24 1ebd 044c ebbd 17bc 0abe
00000040: 93e0 81bd 2dac e1bc c0db d63d b338 02be
00000050: 1510 37bd 5b9e a23d 23bf f93d ea4a ea3d
00000060: 6dda 253e f977 fbbd b2c3 febd 9829 dabd
00000070: fe1a 243e b0ae 6c3d db4a b23b 9cc1 0e3e
00000080: f53e 11be 213f 23be 3800 143e 4297 853d
00000090: 8ef3 203e a2d3 e73d cc61 7d3c 0392 01be
000000a0: cdae 3bbe 734f 133e c502 f0bd 00e0 263e
000000b0: 52ea 10be fdbc 19be c833 1bbe 56ee 19be
000000c0: 382e 9cbd b0f7 07be b700 2a3e 3c85 233e
000000d0: 53a0 04be a060 acbd 7f1d 923d f9e1 c9bd
000000e0: d43e 8abd 5ae9 3d3e 0a48 b83d 717f e93a
000000f0: 88e2 17be f05c 82bc 12e0 cebd 8da8 82bd

conv2.weight f4 [64, 64, 3, 3, 3]
0.00061032764 0.0027366614 -0.024186496 0.006403001 0.007933013 -0.00932967 -0.021553813 0.0061971773
-0.029043874 0.0068944423 -0.010803876 -0.01002103 0.0030372043 -0.010689777 0.010078096 -0.025403013
-0.010480316 -0.020167302 -0.010588928 -0.0060441466 -0.021350149 0.01256922 0.015050245 -0.012479273
0.015431659 -0.01061008 -0.0014955725 -0.010385682 0.014281685 0.015538324 0.008885796 -0.0022874451
0.015741251 0.0036012395 0.011041223 -0.0018032193 -0.00232536 0.0041101584 -0.018466389 0.018110896
0.008675684 0.004621259 -0.0016402467 -0.028334128 0.0035743976 -0.022118846 0.0064856526 -0.02659596
-0.015153506 0.017437873 -0.00018552356 0.012280999 0.0015791868 0.018120168 -0.028911134 -9.59986e-05
0.00017009456 0.0029207396 -0.005172104 0.014196766 0.004155234 -0.012782362 0.017830923 0.01316875
-0.026811432 -0.02750466 -0.019540379 -0.025682552 -0.020155752 -0.007834036 0.008002516 -0.0051873773
-0.017252523 -0.0137423575 -0.01245834 -0.024350796 -0.01745106 -0.019736575 -0.010227982 0.00996738
0.00930395 -0.0053380984 -0.008870865 -0.0075724693 0.0099629415 -0.0011314866 -0.027246553 0.008758288
-0.01893225 0.01700877 0.0048230155 -0.0052521606 0.0049539376 -0.008932023 0.0036569333 -0.016824745
-0.011499541 -0.020062836 0.010278548 -0.01744349 -0.005089442 -0.020778611 -0.0037865804 -0.012953427
-0.0009472729 0.013411969 -0.009641044 0.00918082 0.010639561 0.0040370217 -0.028132953 0.0014970851
-0.017269788 -0.022720419 -0.008429993 -0.009813949 -0.012861747 0.012767912 0.007998551 -0.022674887
0.016701868 -0.007061802 -0.018464826 -0.009339316 -0.00968404 -0.007987063 0.0008223205 0.012180646
-0.0071761273 -0.026224531 -0.005138827 -0.01796412 -0.0043313876 -0.028591195 -0.014723915 -0.019957682
-0.016021462 0.0017425374 -0.022295898 -0.01119083 0.0064171143 -0.021117708 0.010491432 -0.027548214
-0.023061035 0.005699871 0.016617756 0.0093651805 0.0041910456 0.0031502903 -0.02637074 -0.013050984
0.011882555 0.015673999 0.002432577 0.0019217582 -0.023336636 -0.027489813 0.0026492043 -0.023727654
-0.019594572 -0.012648476 -0.01513863 -0.009817411 -0.014222492 -0.021505367 -0.0072328122 -0.0065051448
-0.00035438518 -0.021071324 -0.012951643 -0.029090896 -0.0014103869 0.012516456 -0.0018116727 -0.017670939
-0.02219866 -0.025125552 -0.028678985 -0.011133352 -0.0010054552 -0.008037524 0.016679948 -0.019325279
0.00011960673 -0.00906562 -0.0013295241 -0.009286103 -0.00033257244 -0.026957849 -0.018112931 0.012558575
-0.0036026547 0.008443515 0.0055125137 -0.011625617 -0.015156066 0.015609271 -0.029895294 -0.023557475
-0.024414157 0.007320384 0.016765676 0.0011872875 -0.019420179 -0.025544746 0.002823656 -0.012209569
-0.014938792 0.014556114 -0.0018016716 -0.0035472836 -0.019011324 -0.01564963 0.0011864104 -0.023330607
-0.011369498 -0.00088019535 0.011505858 -0.0072778165 0.003918099 -0.01203774 -0.027254766 0.0010599953
-0.008012755 -0.0066723763 0.015537552 -0.01888409 -0.014103476 0.008462667 0.014234017 0.0031432984
-0.019578276 -0.022546835 -0.016740518 0.020242423 -0.008887273 -0.02655915 -0.028136084 0.0087687895
0.0066784676 -0.0057509257 -0.0068931393 0.011038944 -0.012408377 -0.022102738 -0.015490152 0.011283204
-0.013139069 -0.0058278427 0.0008826281 -0.015615104 -0.023724472 0.008482405 -0.014055558 -0.027358523
00000000: 65fe 1f3a 8f59 333b c222 c6bc 44d0 d13b
00000010: 78f9 013c 79db 18bc 9f91 b0bc b111 cb3b
00000020: 6bed edbc c6ea e13b be02 31bc 3f2f 24bc
00000030: d50b 473b 2d24 2fbc 991e 253c fb19 d0bc
00000040: a2b5 2bbc e635 a5bc 2f7d 2dbc fa0d c6bb
00000050: 82e6 aebc 21ef 4d3c 4e95 763c dd75 4cbc
00000060: 12d5 7c3c e7d5 2dbc 1607 c4ba b528 2abc
00000070: bbfd 693c 7494 7e3c bb95 113c f6e8 15bb
00000080: ccf3 803c c602 6c3b 3fe6 343c 005a ecba
00000090: 1165 18bb 82ae 863b d346 97bc 4d5d 943c
000000a0: 7524 0e3c ee6d 973b 8cfd d6ba f91c e8bc
000000b0: 7140 6a3b 9532 b5bc 9985 d43b c5df d9bc
000000c0: 6946 78bc dfd9 8e3c 1a89 42b9 3e36 493c
000000d0: b7fc ce3a bf70 943c 0bd7 ecbc db52 c9b8
000000e0: 695b 3239 e169 3f3b c17a a9bb 8d99 683c
000000f0: a128 883b 1d6d 51bc 2812 923c bec1 573c
00000100: a6a3 dbbc 7451 e1bc 2513 a0bc 3764 d2bc
00000110: ad1d a5bc 545a 00bc fc1c 033c e0fa a9bb
00000120: 2a55 8dbc a027 61bc 111e 4cbc 527b c7bc
00000130: 86f5 8ebc 99ae a1bc 4493 27bc 394e 233c
00000140: 986f 183c 37eb aebb 1b57 11bc 7a22 f8bb
00000150: 9b3b 233c 644e 94ba 2a34 dfbc ec7e 0f3c
00000160: ce17 9bbc fa55 8b3c 630a 9e3b 511a acbb
00000170: a454 a23b 9f57 12bc 29a9 6f3b 0cd4 89bc
00000180: 9268 3cbc d15a a4bc 5b67 283c a6e5 8ebc
00000190: 55c5 a6bb e837 aabc 4728 78bb 9c3a 54bc
000001a0: 6952 78ba e0bd 5b3c 78f5 1dbc 266b 163c
000001b0: 8e51 2e3c fe48 843b 1477 e6bc d739 c43a
000001c0: 5f79 8dbc 2c20 babc f41d 0abc afca 20bc
000001d0: 14ba 52bc 8130 513c 5b0c 033c afc0 b9bc
000001e0: 5bd2 883c b066 e7bb 8c43 97bc ee03 19bc
000001f0: cfa9 1ebc 2cdc 02bc ff90 573a 5591 473c
00000200: b825 ebbb d4d4 d6bc 9b63 a8bb 7d29 93bc
00000210: 50ee 8dbb 1538 eabc 933c 71bc 4b7e a3bc
00000220: 713f 83bc da65 e43a e3a5 b6bc be59 37bc
00000230: a846 d23b 0bff acbc 41e4 2b3c cbac e1bc
00000240: 7fea bcbc fcc5 ba3b f621 883c 6a70 193c
00000250: 0a55 893b 1a75 4e3b 7307 d8bc cbd3 55bc
00000260: 0caf 423c c266 803c df6b 1f3b 81e3 fb3a
00000270: 792c bfbc 5132 e1bc 469e 2d3b 7f60 c2bc
00000280: cc84 a0bc 8e3b 4fbc 0408 78bc 35d9 20bc
00000290: 7505 69bc 062c b0bc 3a01 edbb 1c29 d5bb
000002a0: c6cc b9b9 c59d acbc 2133 54bc 0850 eebc
000002b0: bbdc b8ba d211 4d3c a675 edba a5c2 90bc
000002c0: f7d9 b5bc 1ad4 cdbc 31f0 eabc aa68 36bc
000002d0: 7ac9 83ba d2af 03bc 63a4 883c 0c50 9ebc
000002e0: 60d5 fa38 f787 14bc 6d43 aeba bd24 18bc
000002f0: 1e5d aeb9 b5d6 dcbc 9261 94bc 7bc2 4d3c
00000300: 841a 6cbb ab56 0a3c 51a2 b43b 5f79 3ebc
00000310: 2651 78bc 07be 7f3c fae6 f4bc 9bfb c0bc
00000320: 3300 c8bc d5df ef3b 2c58 893c c29e 9b3a
00000330: 1117 9fbc 3743 d1bc 160d 393b a50a 48bc
00000340: d6c1 74bc c47c 6e3c 1126 ecba 8b79 68bb
00000350: a3bd 9bbc a733 80bc 5481 9b3a d41f bfbc
00000360: 2247 3abc e9bc 66ba 1183 3c3c c07a eebb
00000370: 6663 803b f139 45bc 6345 dfbc 8aef 8a3a
00000380: ee47 03bc f3a3 dabb 3791 7e3c cfb2 9abc
00000390: 4412 67bc 00a7 0a3c cb35 693c ccff 4d3b
000003a0: 9f62 a0bc 24b4 b8bc 6923 89bc 70d3 a53c
000003b0: ed9b 11bc 9392 d9bc a57d e6bc f8aa 0f3c
000003c0: 0cd7 da3b 4372 bcbb d8df e1bb b0dc 343c
000003d0: 814c 4bbc cd10 b5bc 68ca 7dbc 30dd 383c
000003e0: 4045 57bc 7df7 bebb 2b60 673a 7ed6 7fbc
000003f0: d359 c2bc c9f9 0a3c 4849 66bc fb1e e0bc

conv2.bias f4 [64]
-0.003802872 -0.007913907 0.018839933 -0.0074835555 -0.004646801 0.0028116042 0.010893672 -0.013332023
0.0014260024 -0.0010391296 -0.025937147 0.0015824847 0.008550914 -0.021304931 -0.023737889 0.013537367
0.0139850965 -0.007925147 -0.026439887 0.0007216627 0.0074713784 -0.006945425 0.00014543763 0.014412805
0.017865116 -0.026133783 -0.024749437 0.014996421 -0.020189531 0.016014963 -0.015992055 -0.019507632
-0.012936742 0.0072572404 -0.018293666 0.016581366 0.0046612467 -0.020460434 0.020672126 0.008878781
0.008664524 -0.017668827 -0.019669108 -0.0082511725 -0.003540502 0.0019453543 0.000984893 -0.0036960072
-0.02513092 -0.012605687 -0.00081776245 0.031730402 -0.0082619125 0.014716773 0.012101493 -0.0049496945
0.0076514613 -0.028577667 -0.015173347 -0.024900926 0.016832653 -0.024180353 -0.001388487 -0.005282068
00000000: 9b39 79bb 55a9 01bc 3456 9a3c 9d38 f5bb
00000010: 3144 98bb e442 383b 5f7b 323c 8f6e 5abc
00000020: b3e8 ba3a 6733 88ba 247a d4bc 606b cf3a
00000030: 2219 0c3c ae87 aebc f675 c2bc d5cb 5d3c
00000040: bf21 653c 7ad8 01bc 7698 d8bc f72d 3d3a
00000050: 77d2 f43b 7396 e3bb 9e80 1839 b023 6c3c
00000060: dd59 923c 8416 d6bc 55bf cabc 8cb3 753c
00000070: 8464 a5bc d031 833c c501 83bc 78ce 9fbc
00000080: a1f4 53bc 25ce ed3b 99dc 95bc a5d5 873c
00000090: 5fbd 983b a49c a7bc 9758 a93c 4f78 113c
000000a0: a6f5 0d3c 37be 90bc 1c21 a1bc ed2f 07bc
000000b0: c407 68bb 42fb fe3a 8617 813a b638 72bb
000000c0: 5cdf cdbc 1588 4ebc 1c5f 56ba bdf7 013d
000000d0: f95c 07bc 9f1e 713c 5745 463c 0c31 a2bb
000000e0: 1cb9 fa3b b61b eabc a199 78bc 07fd cbbc
000000f0: a2e4 893c e015 c6bc e5fd b5ba 3315 adbb

conv3.weight f4 [1, 64, 1, 3, 3]
0.019282123 -0.005601991 0.0074281134 0.008889875 -0.025603876 0.022412747 -0.0010177888 -0.016921531
-0.0066889264 -0.047240194 0.013774341 0.009594043 0.044880044 -0.051189464 -0.01597529 0.031086015
-0.032473177 0.0021712657 0.033037595 -0.04237058 -0.027834423 -0.0035864664 0.030609626 -0.032214385
0.031226156 0.021244558 0.035810277 -0.011886752 -0.032931417 0.044117536 -0.031113263 -0.031911597
-0.027596908 0.041052777 -0.002311435 0.03834079 0.041258 -0.003471298 0.029884601 -0.011171434
-0.02119068 0.025444856 -0.02261771 -0.01636732 0.033070765 -0.00844636 0.011591477 -0.0062393625
-0.027114984 0.035577662 0.028719494 0.022164311 0.031939894 -0.020866824 0.027274966 0.014460631
0.032221038 0.009064561 0.016701218 -0.03213882 0.0154898055 0.005572334 0.031232128 -0.010336165
0.031154843 -0.015092833 0.0022043823 0.00235536 -0.013152077 0.009888001 0.011348394 0.018860033
0.030314503 -0.016024075 0.023476569 0.003749654 -0.028359495 0.019508367 0.01689371 -0.019613495
0.036925085 0.033372007 -0.023404624 0.0047294414 0.035795704 -0.0324138 -0.020293964 -0.017249625
0.033047765 0.034044154 0.03223402 -0.04151287 0.032418422 -0.030815331 0.029524494 -0.0034159028
-0.032204185 0.0034509904 0.0038805138 0.03103813 0.014507853 0.029629838 -0.020138565 -0.040540528
-0.012028853 -0.028923668 0.0026516423 0.0127050765 -0.028822409 0.03502709 0.038693607 -0.0076719397
0.0010793272 0.025327329 -0.01017301 0.026592178 -0.035347544 0.02045165 -0.015539275 -0.014756205
-0.0076844525 0.0045421044 0.02157278 0.006574286 -0.022882164 0.04269085 -0.01569682 -0.020570867
0.00518823 -0.021768088 0.03035294 -0.01267129 0.035915554 0.04459726 -0.0350457 -0.016413013
-0.005499046 0.017013881 0.020765662 0.028239427 -0.028369866 0.0039686207 0.037591767 -0.029830659
-0.016902177 -0.033587124 -0.009708841 0.007610756 -0.018701566 -0.02106274 -0.01860392 -0.020164391
-0.011190184 -0.033447713 0.027084729 -0.0014404579 -0.023012053 -0.009606945 0.000755864 -0.0013945966
-0.020935727 -0.024374438 -0.03621022 -0.020246634 0.038710233 -0.0016863872 -0.031155335 -0.018621823
-0.011209437 0.023725165 0.039721 -0.010610235 0.0052918224 0.0027193704 0.029616125 -0.028120441
-0.016189985 -0.0151874395 0.036920037 0.009521569 0.0037648056 -0.027492495 0.000987802 0.010120672
0.027629597 0.03426252 0.002565351 -0.033505768 -0.017811745 0.045530256 -0.004565662 -0.0076366253
-0.029039787 0.024590684 0.0016423578 0.003585016 0.016722817 -0.028618611 0.01624648 -0.012760572
0.011918957 0.011792671 0.009381034 -0.027540807 0.05325331 -0.019617008 -0.025339054 -0.0050939554
0.018103044 -0.01811931 0.003954637 -0.017013613 0.005066601 -0.025197165 -0.0016599935 0.00054763636
-0.020369675 0.033108085 0.026751406 0.01872946 0.010337069 -0.028312406 0.02392577 -0.027837913
0.004419159 0.028659789 0.002426116 0.025076343 -0.038209703 0.016084135 -0.024390517 0.033092994
-0.013237576 -0.02742325 -0.0012273402 -0.016228877 -0.007730866 0.0011784527 0.03904316 0.009878399
-0.012305044 -0.033650693 0.038339764 0.027106388 -0.045435645 0.01854076 0.028376704 0.035788465
-0.012420112 0.028713267 -0.023741974 -0.022262713 -0.03519354 0.036611054 -0.0077717043 0.0038441182
00000000: 8bf5 9d3c e890 b7bb 8867 f33b d7a6 113c
00000010: 38bf d1bc f09a b73c 5367 85ba 069f 8abc
00000020: c82e dbbb ef7e 41bd c6ad 613c 5530 1d3c
00000030: 23d4 373d 0bac 51bd 9dde 82bc 19a8 fe3c
00000040: 9802 05bd cb4b 0e3b 6e52 073d c68c 2dbd
00000050: 0405 e4bc ec0a 6bbb 0ac1 fa3c 3bf3 03bd
00000060: ffcd ff3c 1109 ae3c ccad 123d a7c0 42bc
00000070: 18e3 06bd 97b4 343d 3ee1 febc bcb5 02bd
00000080: e912 e2bc f526 283d 727b 17bb 3b0b 1d3d
00000090: 26fe 283d b77e 63bb 8dd0 f43c 6408 37bc
000000a0: 1498 adbc bb71 d03c c748 b9bc c214 86bc
000000b0: 3675 073d 9a62 0abc 2eea 3d3c 9173 ccbb
000000c0: 3e20 debc e2b9 113d 2545 eb3c ee91 b53c
000000d0: 68d3 023d e7f0 aabc c06f df3c 48ec 6c3c
000000e0: 35fa 033d 8683 143c fed0 883c ffa3 03bd
000000f0: f4c8 7d3c 2098 b63b 85da ff3c 0559 29bc
00000100: 7138 ff3c ee47 77bc 6677 103b 625c 1a3b
00000110: cf7b 57bc 4801 223c 9dee 393c 5b80 9a3c
00000120: 1f56 f83c ec44 83bc ef51 c03c c1bc 753b
00000130: 2c52 e8bc 03d0 9f3c ad64 8a3c 7bac a0bc
00000140: c23e 173d 16b1 083d 0ebb bfbc 6ef9 9a3b
00000150: 849e 123d 55c4 04bd 873f a6bc 164f 8dbc
00000160: 185d 073d e271 0b3d d207 043d 6609 2abd
00000170: 2ec9 043d 6f70 fcbc 5add f13c 57dd 5fbb
00000180: 89e8 03bd 032a 623b 3850 7e3b ad43 fe3c
00000190: 59b2 6d3c 46ba f23c a2f9 a4bc d30d 26bd
000001a0: ab14 45bc 54f1 ecbc 2dc7 2d3b f428 503c
000001b0: f91c ecbc 9178 0f3d 307d 1e3d e564 fbbb
000001c0: 3678 8d3a 427b cf3c b2ac 26bc d7d7 d93c
000001d0: 96c8 10bd 388a a73c 7198 7ebc 02c4 71bc
000001e0: dccd fbbb efd5 943b 66b9 b03c 1c6d d73b
000001f0: 6073 bbbc 9adc 2e3d 9e96 80bc 3c84 a8bc
00000200: 0702 aa3b fd52 b2bc bba6 f83c 3e9b 4fbc
00000210: 301c 133d 9eab 363d 148c 0fbd 9574 86bc
00000220: 5731 b4bb b260 8b3c c01c aa3c 5f56 e73c
00000230: ec67 e8bc 340b 823b d3f9 193d 6d5f f4bc
00000240: 6f76 8abc a792 09bd d511 1fbc a663 f93b
00000250: 0734 99bc c48b acbc 3f67 98bc cb2f a5bc
00000260: 0957 37bc 7800 09bd cbe0 dd3c bfcd bcba
00000270: c683 bcbc 7366 1dbc 2d25 463a e6ca b6ba
00000280: 6781 abbc e7ac c7bc 2b51 14bd 45dc a5bc
00000290: 9f8e 1e3d c409 ddba 7939 ffbc cb8c 98bc
000002a0: c9a7 37bc 475b c23c 7db2 223d 8dd6 2dbc
000002b0: 0667 ad3b 7737 323b 849d f23c d75c e6bc
000002c0: dca0 84bc bdd4 78bc 7739 173d 5b00 1c3c
000002d0: f5ba 763b f137 e1bc 2379 813a 2dd1 253c
000002e0: 7757 e23c db56 0c3d 731f 283b 583d 09bd
000002f0: f0e9 91bc ef7d 3a3d 8c9b 95bb a83c fabb
00000300: d9e4 edbc 6772 c93c 6244 d73a 96f2 6a3b
00000310: 4afe 883c 9471 eabc 5717 853c b811 51bc
00000320: bb47 433c 0c36 413c e9b2 193c 429d e1bc
00000330: 2520 5a3d d9b3 a0bc d993 cfbc 32eb a6bb
00000340: d64c 943c f26e 94bc e695 813b 2260 8bbc
00000350: bb05 a63b 496a cebc 2494 d9ba 418f 0f3a
00000360: 4ede a6bc 589c 073d c425 db3c 866e 993c
00000370: cf5c 293c 6bef e7bc faff c33c 560c e4bc
00000380: 98ce 903b efc7 ea3c 79ff 1e3b e76c cd3c
00000390: c781 1cbd e0c2 833c 9fce c7bc 858c 073d
000003a0: 6be2 58bc b9a6 e0bc b4de a0ba 6cf2 84bc
000003b0: 3453 fdbb 5076 9a3a b8eb 1f3d 02d9 213c
000003c0: 189b 49bc 4fd5 09bd 280a 1d3d 370e de3c
000003d0: ba1a 3abd cbe2 973c 4376 e83c ed96 123d
000003e0: ba7d 4bbc 1638 eb3c 877e c2bc 4b60 b6bc
000003f0: 1a27 10bd 79f5 153d c8a9 febb 9aed 7b3b
